ir_version: 8
producer_name: "onnx.quantize"
producer_version: "0.1.0"
graph {
  node {
    input: "input"
    output: "input_quantized"
    output: "input_scale"
    output: "input_zero_point"
    name: "input_QuantizeLinear"
    op_type: "DynamicQuantizeLinear"
  }
  node {
    input: "input_scale"
    input: "0.weight_scale"
    output: "/0/Gemm_MatMul_quant_scales_mul:0"
    name: "/0/Gemm_MatMul_quant_scales_mul"
    op_type: "Mul"
  }
  node {
    input: "input_quantized"
    input: "0.weight_quantized"
    input: "input_zero_point"
    input: "0.weight_zero_point"
    output: "/0/Gemm_output_0_MatMul_output_quantized"
    name: "/0/Gemm_MatMul_quant"
    op_type: "MatMulInteger"
  }
  node {
    input: "/0/Gemm_output_0_MatMul_output_quantized"
    output: "/0/Gemm_output_0_MatMul_output_quantized_cast_output"
    name: "/0/Gemm_output_0_MatMul_output_quantized_cast"
    op_type: "Cast"
    attribute {
      name: "to"
      i: 1
      type: INT
    }
  }
  node {
    input: "/0/Gemm_output_0_MatMul_output_quantized_cast_output"
    input: "/0/Gemm_MatMul_quant_scales_mul:0"
    output: "/0/Gemm_output_0_MatMul"
    name: "/0/Gemm_MatMul_quant_output_scale_mul"
    op_type: "Mul"
  }
  node {
    input: "/0/Gemm_output_0_MatMul"
    input: "0.bias"
    output: "/0/Gemm_output_0"
    name: "/0/Gemm_Add"
    op_type: "Add"
  }
  node {
    input: "/0/Gemm_output_0"
    output: "/1/Relu_output_0"
    name: "/1/Relu"
    op_type: "Relu"
  }
  node {
    input: "/1/Relu_output_0"
    output: "/1/Relu_output_0_quantized"
    output: "/1/Relu_output_0_scale"
    output: "/1/Relu_output_0_zero_point"
    name: "/1/Relu_output_0_QuantizeLinear"
    op_type: "DynamicQuantizeLinear"
  }
  node {
    input: "/1/Relu_output_0_scale"
    input: "2.weight_scale"
    output: "/2/Gemm_MatMul_quant_scales_mul:0"
    name: "/2/Gemm_MatMul_quant_scales_mul"
    op_type: "Mul"
  }
  node {
    input: "/1/Relu_output_0_quantized"
    input: "2.weight_quantized"
    input: "/1/Relu_output_0_zero_point"
    input: "2.weight_zero_point"
    output: "output_MatMul_output_quantized"
    name: "/2/Gemm_MatMul_quant"
    op_type: "MatMulInteger"
  }
  node {
    input: "output_MatMul_output_quantized"
    output: "output_MatMul_output_quantized_cast_output"
    name: "output_MatMul_output_quantized_cast"
    op_type: "Cast"
    attribute {
      name: "to"
      i: 1
      type: INT
    }
  }
  node {
    input: "output_MatMul_output_quantized_cast_output"
    input: "/2/Gemm_MatMul_quant_scales_mul:0"
    output: "output_MatMul"
    name: "/2/Gemm_MatMul_quant_output_scale_mul"
    op_type: "Mul"
  }
  node {
    input: "output_MatMul"
    input: "2.bias"
    output: "output"
    name: "/2/Gemm_Add"
    op_type: "Add"
  }
  name: "main_graph"
  initializer {
    dims: 32
    data_type: 1
    name: "0.bias"
    raw_data: "…"
  }
  initializer {
    dims: 1
    data_type: 1
    name: "2.bias"
    raw_data: "\264\276i>"
  }
  initializer {
    data_type: 1
    float_data: 0.008589396
    name: "0.weight_scale"
  }
  initializer {
    data_type: 3
    int32_data: 0
    name: "0.weight_zero_point"
  }
  initializer {
    dims: 6
    dims: 32
    data_type: 3
    name: "0.weight_quantized"
    raw_data: "…"
  }
  initializer {
    data_type: 1
    float_data: 0.0026304566
    name: "2.weight_scale"
  }
  initializer {
    data_type: 3
    int32_data: 0
    name: "2.weight_zero_point"
  }
  initializer {
    dims: 32
    dims: 1
    data_type: 3
    name: "2.weight_quantized"
    raw_data: "\3161\375\321\032\351\005N>/h\177\322\321\021\350Z\307M\364tF\023MY?M8 X\324Y"
  }
  input {
    name: "input"
    type {
      tensor_type {
        elem_type: 1
        shape {
          dim {
            dim_param: "batch"
          }
          dim {
            dim_value: 6
          }
        }
      }
    }
  }
  output {
    name: "output"
    type {
      tensor_type {
        elem_type: 1
        shape {
          dim {
            dim_param: "batch"
          }
          dim {
            dim_value: 1
          }
        }
      }
    }
  }
  value_info {
    name: "/0/Gemm_output_0"
    type {
      tensor_type {
        elem_type: 1
        shape {
          dim {
            dim_param: "batch"
          }
          dim {
            dim_value: 32
          }
        }
      }
    }
  }
  value_info {
    name: "/1/Relu_output_0"
    type {
      tensor_type {
        elem_type: 1
        shape {
          dim {
            dim_param: "batch"
          }
          dim {
            dim_value: 32
          }
        }
      }
    }
  }
  value_info {
    name: "/0/Gemm_output_0_MatMul"
    type {
      tensor_type {
        elem_type: 1
        shape {
          dim {
            dim_param: "batch"
          }
          dim {
            dim_value: 32
          }
        }
      }
    }
  }
  value_info {
    name: "output_MatMul"
    type {
      tensor_type {
        elem_type: 1
        shape {
          dim {
            dim_param: "batch"
          }
          dim {
            dim_value: 1
          }
        }
      }
    }
  }
}
opset_import {
  version: 17
}
metadata_props {
  key: "onnx.infer"
  value: "onnxruntime.quant"
}
